pset2/PixelCNN_Condition.pt (torch, 531605 bytes, 29 tensors)

weight f4 [32, 1, 7, 7]
0.0026526751 0.011601829 0.05976576 0.03886345 0.12009484 -0.058806255 0.13098718 0.18495972
-0.0006591906 -0.025398409 0.13321227 0.1690878 0.10814598 0.052801598 0.07046284 -0.042707074
-0.0013241044 0.25378895 0.084578075 0.13643277 0.21245176 0.18477441 -0.08905203 0.5606657
-0.12229193 -0.0899202 0.13264312 0.0758277 0.032400236 -0.07307525 -0.10552031 0.10868262
0.0977796 0.07048118 -0.105018735 0.10309233 -0.029319987 -0.0007711649 -0.028897375 0.13868053
-0.08975867 -0.1000097 -0.078398556 -0.08919072 0.051834792 0.07721931 0.08085655 0.094803706
0.07298277 0.07467183 -0.058176525 -0.093067445 -0.11410795 -0.037248023 -0.047297392 -0.033672657
-0.03717092 -0.15531659 -0.06642672 -0.115352035 -0.029346542 0.055982783 -0.036471497 -0.025476072
0.06434949 0.2291538 0.34062698 0.30470696 -0.010929962 -0.025998326 -0.08453167 -0.08077767
0.21164721 0.026031598 -0.113771155 -0.06649592 -0.10641984 0.08690892 0.014241576 -0.09141703
0.07347123 0.042602673 -0.09708216 0.011866853 0.11273284 -0.07323652 0.102489665 0.11244179
0.113354966 -0.050062336 0.007865891 -0.03741619 0.04091288 -0.00051926076 -0.06695448 -0.05067861
0.005411148 0.08776374 -0.057512496 -0.10953463 0.03251055 0.085663 0.048292868 -0.0345453
0.019495117 0.0528898 -0.0152415065 -0.12156352 -0.080401845 0.04300908 0.13489674 0.09075057
-0.01130731 0.107928626 -0.03937989 -0.28417283 -0.026671316 -0.070874795 0.25057733 -0.25552005
0.18736506 -0.1310782 0.13887401 -0.12588377 -0.0076999813 0.02087617 -0.020418443 -0.041425027
0.08133732 0.0057525635 0.11170901 0.058600694 -0.09674871 -0.100372255 0.07177484 -0.08399354
0.05938922 -0.124171175 0.10311985 -0.03646812 -0.1253206 -0.0155747235 0.12031342 -0.11510376
-0.08139235 0.08902609 -0.032974124 0.109153405 0.12221369 0.053074867 -0.024683872 0.16429709
0.027737575 0.014336754 -0.025259245 0.16195609 0.02275054 0.104693785 0.22845733 0.16361724
0.050336678 0.094331376 0.17290722 0.08937219 0.06088407 0.04186551 0.30764434 0.4052095
0.24742027 0.14968023 0.41938722 0.027720883 0.052122563 -0.08224808 0.09091641 0.05388458
0.10197194 -0.057760738 -0.0060138553 -0.124046534 -0.05515974 -0.12045231 0.08271131 0.13186581
0.10802059 0.10640226 0.00734888 -0.10083785 -0.086863995 -0.12967867 0.037986934 -0.010484591
0.13558231 -0.01058808 0.07939221 -0.008980557 -0.058363304 -0.09954638 0.024413615 -0.019864066
-0.13563667 0.1575957 0.2156735 0.029412821 -0.12896061 0.07836742 -0.097388186 0.039431717
0.019019168 0.16385324 0.047173053 -0.06159275 -0.06537202 -0.15841885 -0.15254977 -0.2876761
0.15598713 0.05280042 -0.16564843 -0.12227793 0.14203863 0.13365899 0.08740008 -0.08835721
0.02028215 0.082110524 0.0597966 -0.13889642 0.11316119 -0.09249827 -0.029928498 -0.07170747
0.019082084 0.057698622 0.08531782 0.0027882159 -0.085682414 0.044224277 0.12523852 0.0383178
-0.06695707 0.09645058 0.026887506 -0.011025116 -0.13389286 0.15052328 -0.01352018 0.044596408
-0.0052617313 -0.010887312 -0.023311779 0.07700979 0.075708814 0.083719365 -0.15833426 -0.2823404
00000000: 81d8 2d3b 9915 3e3c f1cc 743d 482f 1f3d
00000010: 49f4 f53d d4de 70bd 8121 063e 1566 3d3e
00000020: 88cd 2cba 5310 d0bc cc68 083e 5a25 2d3e
00000030: a47b dd3d 7d46 583d d24e 903d 9ded 2ebd
00000040: 928d adba a0f0 813e 4537 ad3d 08b5 0b3e
00000050: f48c 593e 8135 3d3e e960 b6bd ca87 0f3f
00000060: 3174 fabd 1528 b8bd 99d3 073e 8e4b 9b3d
00000070: 1cb6 043d 7aa8 95bd 081b d8bd fe94 de3d
00000080: ac40 c83d 7058 903d 1014 d7bd 1222 d33d
00000090: 7830 f0bc 0028 4aba 30ba ecbc 4502 0e3e
000000a0: 65d3 b7bd e3d1 ccbd 6c8f a0bd a0a9 b6bd
000000b0: b850 543d 2825 9e3d 1e98 a53d 7228 c23d
000000c0: fe77 953d 8bed 983d 824a 6ebd 259a bebd
000000d0: 6eb1 e9bd 6291 18bd e9ba 41bd 57ec 09bd
000000e0: 8940 18bd 500b 1fbe bb0a 88bd b03d ecbd
000000f0: 2968 f0bc 344e 653d 2363 15bd 32b3 d0bc
00000100: aac9 833d 4ba7 6a3e a966 ae3e 8d02 9c3e
00000110: 9513 33bc 71fa d4bc f11e adbd c36e a5bd
00000120: 0cba 583e 3840 d53c da00 e9bd 032f 88bd
00000130: a5f2 d9bd 4efd b13d 8055 693c da38 bbbd
00000140: 1678 963d 2480 2e3d 03d3 c6bd 306d 423c
00000150: 7ae0 e63d 07fd 95bd 1ae6 d13d e247 e63d
00000160: a626 e83d 2a0e 4dbd f0df 003c b841 19bd
00000170: 4494 273d 001f 08ba 6e1f 89bd 6094 4fbd
00000180: 0050 b13b 7abd b33d 3992 6bbd b153 e0bd
00000190: c829 053d 1570 af3d bece 453d 5f7f 0dbd
000001a0: 39b4 9f3c faa2 583d 83b7 79bc 4bf6 f8bd
000001b0: b9a9 a4bd 4a2a 303d 5f22 0a3e 6fdb b93d
000001c0: 4c42 39bc af09 dd3d cf4c 21bd 1a7f 91be
000001d0: ce7d dabc ce26 91bd ac4b 803e 86d3 82be
000001e0: a0dc 3f3e 5d39 06be fd34 0e3e ade7 00be
000001f0: 2050 fcbb 8004 ab3c 9444 a7bc 4aad 29bd
00000200: 2e94 a63d 0080 bc3b b2c7 e43d 4807 703d
00000210: 3024 c6bd f88f cdbd b0fe 923d ce04 acbd
00000220: 1c42 733d 754d febd 8030 d33d 985f 15bd
00000230: 0b54 00be 202d 7fbc e266 f63d 85bb ebbd
00000240: 08b1 a6bd 5053 b63d e00f 07bd d28b df3d
00000250: 2c4b fa3d 0865 593d d535 cabc 7f3d 283e
00000260: e939 e33c b4e4 6a3c 7aec cebc d1d7 253e
00000270: 575f ba3c b269 d63d b8f0 693e 478b 273e
00000280: d52d 4e3d cf30 c13d 970e 313e c408 b73d
00000290: 9361 793d 2b7b 2b3d 8f83 9d3e 9f77 cf3e
000002a0: bd5b 7d3e c645 193e ecb9 d63e e816 e33c
000002b0: 787e 553d ae71 a8bd 6232 ba3d 14b6 5c3d
000002c0: aad6 d03d 8696 6cbd e00f c5bb 1c0c febd
000002d0: 2eef 61bd b3af f6bd 8c64 a93d d507 073e
000002e0: e639 dd3d 6ee9 d93d e0ce f03b 1384 cebd
000002f0: c0e5 b1bd 7cca 04be 3098 1b3d 90c7 2bbc
00000300: 17d6 0a3e a079 2dbc 6298 a23d 3023 13bc
00000310: 5c0e 6fbd f9de cbbd 10ff c73c f7b9 a2bc
00000320: 57e4 0abe c460 213e 84d9 5c3e 28f3 f03c
00000330: 400e 04be 197f a03d 7573 c7bd 2783 213d
00000340: 16ce 9b3c 25c9 273e 8838 413d ae48 7cbd
00000350: c4e1 85bd 8d38 22be 0236 1cbe 484a 93be
00000360: 17bb 1f3e 4145 583d be9f 29be da6c fabd
00000370: 9372 113e e7dd 083e d0fe b23d a0f4 b4bd
00000380: c026 a63c 9029 a83d 48ed 743d dd3a 0ebe
00000390: 0ec1 e73d bc6f bdbd 9c2c f5bc 5edb 92bd
000003a0: 0852 9c3c 6455 6c3d 1cbb ae3d 80ba 363b
000003b0: 437a afbd 8424 353d 873e 003e 20f3 1c3d
000003c0: ca20 89bd e287 c53d 3043 dc3c b0a2 34bc
000003d0: 361b 09be c622 1a3e bf83 5dbc b9aa 363d
000003e0: 9a6a acbb b260 32bc 58f8 bebc 4fb7 9d3d
000003f0: 390d 9b3d 0f75 ab3d 6022 22be ec8e 90be

bias f4 [32]
0.14745317 -0.06565344 0.012187973 0.0750483 0.01835475 0.017684314 0.09344053 -0.034770515
0.017564917 0.0065608686 -0.137106 0.037381962 -0.06572042 0.19375873 0.17468584 0.27781612
-0.05898467 -0.14751878 -0.029035412 0.017907998 0.18139496 0.017936757 0.018854903 0.19522645
0.17112285 0.11027857 0.0071923854 0.018808646 0.077041425 0.085226566 -0.07466335 0.13117838
00000000: f7fd 163e 5075 86bd 10b0 473c ecb2 993d
00000010: b35c 963c b2de 903c c05d bf3d 876b 0ebd
00000020: 4de4 8f3c 8efc d63b 8465 0cbe d41d 193d
00000030: 6d98 86bd b068 463e d8e0 323e ea3d 8e3e
00000040: e999 71bd 2a0f 17be acdb edbc cbb3 923c
00000050: 9abf 393e 1bf0 923c 9975 9a3c 71e9 473e
00000060: d43a 2f3e bbd9 e13d 1aae eb3b 9714 9a3c
00000070: e5c7 9d3d 448b ae3d 19e9 98bd a053 063e

mask f4 [32, 1, 7, 7]
1.0 1.0 1.0 1.0 1.0 1.0 1.0 1.0
1.0 1.0 1.0 1.0 1.0 1.0 1.0 1.0
1.0 1.0 1.0 1.0 1.0 1.0 1.0 1.0
0.0 0.0 0.0 0.0 0.0 0.0 0.0 0.0
0.0 0.0 0.0 0.0 0.0 0.0 0.0 0.0
0.0 0.0 0.0 0.0 0.0 0.0 0.0 0.0
0.0 1.0 1.0 1.0 1.0 1.0 1.0 1.0
1.0 1.0 1.0 1.0 1.0 1.0 1.0 1.0
1.0 1.0 1.0 1.0 1.0 1.0 1.0 1.0
1.0 0.0 0.0 0.0 0.0 0.0 0.0 0.0
0.0 0.0 0.0 0.0 0.0 0.0 0.0 0.0
0.0 0.0 0.0 0.0 0.0 0.0 0.0 0.0
0.0 0.0 1.0 1.0 1.0 1.0 1.0 1.0
1.0 1.0 1.0 1.0 1.0 1.0 1.0 1.0
1.0 1.0 1.0 1.0 1.0 1.0 1.0 1.0
1.0 1.0 0.0 0.0 0.0 0.0 0.0 0.0
0.0 0.0 0.0 0.0 0.0 0.0 0.0 0.0
0.0 0.0 0.0 0.0 0.0 0.0 0.0 0.0
0.0 0.0 0.0 1.0 1.0 1.0 1.0 1.0
1.0 1.0 1.0 1.0 1.0 1.0 1.0 1.0
1.0 1.0 1.0 1.0 1.0 1.0 1.0 1.0
1.0 1.0 1.0 0.0 0.0 0.0 0.0 0.0
0.0 0.0 0.0 0.0 0.0 0.0 0.0 0.0
0.0 0.0 0.0 0.0 0.0 0.0 0.0 0.0
0.0 0.0 0.0 0.0 1.0 1.0 1.0 1.0
1.0 1.0 1.0 1.0 1.0 1.0 1.0 1.0
1.0 1.0 1.0 1.0 1.0 1.0 1.0 1.0
1.0 1.0 1.0 1.0 0.0 0.0 0.0 0.0
0.0 0.0 0.0 0.0 0.0 0.0 0.0 0.0
0.0 0.0 0.0 0.0 0.0 0.0 0.0 0.0
0.0 0.0 0.0 0.0 0.0 1.0 1.0 1.0
1.0 1.0 1.0 1.0 1.0 1.0 1.0 1.0
00000000: 0000 803f 0000 803f 0000 803f 0000 803f
00000010: 0000 803f 0000 803f 0000 803f 0000 803f
00000020: 0000 803f 0000 803f 0000 803f 0000 803f
00000030: 0000 803f 0000 803f 0000 803f 0000 803f
00000040: 0000 803f 0000 803f 0000 803f 0000 803f
00000050: 0000 803f 0000 803f 0000 803f 0000 803f
00000060: 0000 0000 0000 0000 0000 0000 0000 0000
00000070: 0000 0000 0000 0000 0000 0000 0000 0000
00000080: 0000 0000 0000 0000 0000 0000 0000 0000
00000090: 0000 0000 0000 0000 0000 0000 0000 0000
000000a0: 0000 0000 0000 0000 0000 0000 0000 0000
000000b0: 0000 0000 0000 0000 0000 0000 0000 0000
000000c0: 0000 0000 0000 803f 0000 803f 0000 803f
000000d0: 0000 803f 0000 803f 0000 803f 0000 803f
000000e0: 0000 803f 0000 803f 0000 803f 0000 803f
000000f0: 0000 803f 0000 803f 0000 803f 0000 803f
00000100: 0000 803f 0000 803f 0000 803f 0000 803f
00000110: 0000 803f 0000 803f 0000 803f 0000 803f
00000120: 0000 803f 0000 0000 0000 0000 0000 0000
00000130: 0000 0000 0000 0000 0000 0000 0000 0000
00000140: 0000 0000 0000 0000 0000 0000 0000 0000
00000150: 0000 0000 0000 0000 0000 0000 0000 0000
00000160: 0000 0000 0000 0000 0000 0000 0000 0000
00000170: 0000 0000 0000 0000 0000 0000 0000 0000
00000180: 0000 0000 0000 0000 0000 803f 0000 803f
00000190: 0000 803f 0000 803f 0000 803f 0000 803f
000001a0: 0000 803f 0000 803f 0000 803f 0000 803f
000001b0: 0000 803f 0000 803f 0000 803f 0000 803f
000001c0: 0000 803f 0000 803f 0000 803f 0000 803f
000001d0: 0000 803f 0000 803f 0000 803f 0000 803f
000001e0: 0000 803f 0000 803f 0000 0000 0000 0000
000001f0: 0000 0000 0000 0000 0000 0000 0000 0000
00000200: 0000 0000 0000 0000 0000 0000 0000 0000
00000210: 0000 0000 0000 0000 0000 0000 0000 0000
00000220: 0000 0000 0000 0000 0000 0000 0000 0000
00000230: 0000 0000 0000 0000 0000 0000 0000 0000
00000240: 0000 0000 0000 0000 0000 0000 0000 803f
00000250: 0000 803f 0000 803f 0000 803f 0000 803f
00000260: 0000 803f 0000 803f 0000 803f 0000 803f
00000270: 0000 803f 0000 803f 0000 803f 0000 803f
00000280: 0000 803f 0000 803f 0000 803f 0000 803f
00000290: 0000 803f 0000 803f 0000 803f 0000 803f
000002a0: 0000 803f 0000 803f 0000 803f 0000 0000
000002b0: 0000 0000 0000 0000 0000 0000 0000 0000
000002c0: 0000 0000 0000 0000 0000 0000 0000 0000
000002d0: 0000 0000 0000 0000 0000 0000 0000 0000
000002e0: 0000 0000 0000 0000 0000 0000 0000 0000
000002f0: 0000 0000 0000 0000 0000 0000 0000 0000
00000300: 0000 0000 0000 0000 0000 0000 0000 0000
00000310: 0000 803f 0000 803f 0000 803f 0000 803f
00000320: 0000 803f 0000 803f 0000 803f 0000 803f
00000330: 0000 803f 0000 803f 0000 803f 0000 803f
00000340: 0000 803f 0000 803f 0000 803f 0000 803f
00000350: 0000 803f 0000 803f 0000 803f 0000 803f
00000360: 0000 803f 0000 803f 0000 803f 0000 803f
00000370: 0000 0000 0000 0000 0000 0000 0000 0000
00000380: 0000 0000 0000 0000 0000 0000 0000 0000
00000390: 0000 0000 0000 0000 0000 0000 0000 0000
000003a0: 0000 0000 0000 0000 0000 0000 0000 0000
000003b0: 0000 0000 0000 0000 0000 0000 0000 0000
000003c0: 0000 0000 0000 0000 0000 0000 0000 0000
000003d0: 0000 0000 0000 803f 0000 803f 0000 803f
000003e0: 0000 803f 0000 803f 0000 803f 0000 803f
000003f0: 0000 803f 0000 803f 0000 803f 0000 803f

weight f4 [784, 10]
0.12645845 0.16620567 0.08093195 0.25169003 0.13444105 0.31259117 0.17073104 0.3536556
0.40106174 0.35152102 0.051847097 0.14295694 0.12078174 0.24462683 0.23275858 0.12378704
0.07021956 0.06246022 0.163617 0.4081196 0.36867 0.3323901 0.12767112 0.27064878
0.277105 0.38075593 0.2228174 0.29531664 -0.06597907 -0.09237249 0.37427258 0.3970941
0.094971135 -0.1871996 -0.06984603 0.27740175 0.4010432 0.37502328 -0.08310809 0.32909718
0.32769084 -0.098966666 0.21153507 0.3305313 0.22094892 0.24046266 -0.12417161 -0.12792893
0.2178688 0.23990028 0.11391689 0.09319363 0.15031871 0.38446778 0.1177876 -0.24976115
-0.1835652 -0.25682995 0.0769644 0.40299445 -0.027959656 0.06900919 0.24920654 -0.097709954
0.26549047 0.01734635 0.30838954 0.44767642 0.3755608 0.086415306 -0.10576851 0.24079765
-0.13474031 0.3157008 0.36689547 0.28864852 -0.07348044 0.47916943 0.37375054 0.33841455
0.32042322 0.27417263 0.273502 0.44221476 -0.08197999 0.3185003 -0.021055752 0.5000533
0.28200266 -0.08911852 0.16760643 0.22329144 0.011213261 0.31425363 0.19555138 0.13876125
0.46007562 0.16991727 0.066140756 0.28058103 -0.08884506 0.21199384 0.14050609 0.16799249
-0.1573807 0.36464772 -0.1027046 0.3277356 -0.18513584 0.23153813 0.1719288 -0.091742046
-0.18803982 0.053853843 0.40726754 0.08896467 0.28041813 0.37529916 0.103965685 0.13624993
0.15140565 0.4130882 0.15607633 0.25845754 -0.207313 0.33092988 -0.07640209 -0.012246144
-0.20719108 0.33848083 0.14501806 0.20918928 -0.05579835 0.030467803 0.20929743 0.12372104
0.55745196 0.2892554 0.14168768 0.37564364 0.19956172 0.5290018 0.31582338 0.3354197
-0.1806146 -0.110356525 0.116975605 0.36512256 0.26085785 -0.10668615 -0.094895706 0.35224754
-0.059110876 -0.053839423 0.10910314 0.25565737 0.4100014 0.23582608 0.29683214 -0.0007767351
0.1621254 0.20555119 0.10173222 0.0059686527 -0.074942954 -0.20754917 -0.3258996 0.38620377
0.28501922 0.017701313 0.055413138 0.10489418 0.106609285 0.054625638 0.067890756 -0.33058298
0.31013167 0.0257999 -0.014339612 -0.24772885 0.1628171 0.026918015 -0.2317606 -0.12253618
-0.17006251 -0.23905061 0.4000108 -0.0970749 -0.02605044 -0.045600686 0.14574525 0.05458499
0.2922143 0.11807088 0.14436096 0.10836122 -0.045237157 0.39444792 0.14776228 0.13104399
0.29399502 0.27671295 0.32916647 -0.2119064 0.4323267 -0.36314082 0.36072078 0.25422078
0.13785039 0.2777821 0.08434465 0.20169309 -0.06925986 -0.14184755 -0.012099279 0.22060955
0.52850664 -0.15047824 -0.05547436 0.11430477 -0.1968521 0.16482948 0.25990853 0.21034297
0.2771703 0.38163805 -0.16379651 0.44083405 -0.19954011 0.23127548 0.20535271 -0.21467637
0.15810542 0.21876508 0.061334815 0.25731668 0.2558931 0.29194438 0.3148715 0.34954742
0.16870771 0.27571437 0.057986785 -0.16082083 0.2046086 -0.27221933 0.40798727 0.38061428
0.10900715 0.40125617 -0.015146241 -0.11321902 0.044217356 -0.09984023 0.0724188 0.28321403
00000000: 537e 013e d231 2a3e a6bf a53d 84dd 803e
00000010: eaaa 093e f30b a03e 1ed4 2e3e 5912 b53e
00000020: f757 cd3e 90fa b33e 9f5d 543d 4e63 123e
00000030: 6b5c f73d 757f 7a3e 4458 6e3e 0f84 fd3d
00000040: 46cf 8f3d 4ad6 7f3d 378b 273e 0df5 d03e
00000050: 50c2 bc3e 092f aa3e 38bc 023e 7a92 8a3e
00000060: b5e0 8d3e 71f2 c23e 3f2a 643e be33 973e
00000070: 0920 87bd ca2d bdbd a8a0 bf3e eb4f cb3e
00000080: 3a80 c23d 40b1 3fbe 6f0b 8fbd 9a07 8e3e
00000090: 8955 cd3e 0d03 c03e 9334 aabd 6d7f a83e
000000a0: 18c7 a73e 09af cabd a69c 583e 663b a93e
000000b0: 6f40 623e d83b 763e af4d febd cdff 02be
000000c0: 0019 5f3e 6ba8 753e 424d e93d 4ddc be3d
000000d0: 26ed 193e f6d8 c43e a03a f13d 63c1 7fbe
000000e0: 84f8 3bbe 377f 83be 839f 9d3d 4a55 ce3e
000000f0: a60b e5bc b154 8d3d 0030 7f3e 281c c8bd
00000100: 5eee 873e ef19 8e3c 3ce5 9d3e d835 e53e
00000110: 8149 c03e 82fa b03d 299d d8bd a993 763e
00000120: 5df9 09be 89a3 a13e b9d9 bb3e bdc9 933e
00000130: ea7c 96bd b255 f53e 3b5c bf3e ac44 ad3e
00000140: 830e a43e 5b60 8c3e 7408 8c3e f969 e23e
00000150: 20e5 a7bd 7912 a33e 1d7d acbc 7e03 003f
00000160: a762 903e c583 b6bd 05a1 2b3e 83a6 643e
00000170: d3b7 373c dae5 a03e 9f3e 483e 6e17 0e3e
00000180: 088f eb3e cbfe 2d3e ce74 873d 51a8 8f3e
00000190: 66f4 b5bd ea14 593e d4e0 0f3e 3906 2c3e
000001a0: 6828 21be 1bb3 ba3e ca56 d2bd f6cc a73e
000001b0: 4094 3dbe 5518 6d3e 1a0e 303e 41e3 bbbd
000001c0: 838d 40be d995 5c3d 5f85 d03e 1c33 b63d
000001d0: f792 8f3e 3627 c03e f6eb d43d 1a85 0b3e
000001e0: 150a 1b3e 4c80 d33e 79d2 1f3e 8c54 843e
000001f0: dc49 54be a46f a93e b378 9cbd 0da4 48bc
00000200: e629 54be 5c4d ad3e 9d7f 143e b735 563e
00000210: d08c 64bd 9d97 f93c 1152 563e 7561 fd3d
00000220: 2cb5 0e3f 4919 943e 9316 113e 5d54 c03e
00000230: e859 4c3e a96c 073f 9ab3 a13e 22bc ab3e
00000240: 09f3 38be 9a02 e2bd e890 ef3d 58f1 ba3e
00000250: 298f 853e 457e dabd ae58 c2bd ca59 b43e
00000260: 3f1e 72bd ba86 5cbd 7871 df3d 86e5 823e
00000270: b4eb d13e 647c 713e 62fa 973e cf9d 4bba
00000280: 3304 263e 037c 523e fb58 d03d b094 c33b
00000290: b17b 99bd c587 54be 50dc a6be 80bc c53e
000002a0: 0aee 913e 5802 913c e3f8 623d c3d2 d63d
000002b0: f855 da3d 22bf 5f3d 4f0a 8b3d 2c42 a9be
000002c0: 94c9 9e3e 505a d33c b1f0 6abc a2ac 7dbe
000002d0: 87b9 263e 2b83 dc3c a752 6dbe 40f4 fabd
000002e0: de24 2ebe afc9 74be 37ce cc3e 35cf c6bd
000002f0: bb67 d5bc c9c7 3abd 3e3e 153e 8394 5f3d
00000300: 1d9d 953e 25cf f13d 5cd3 133e 7dec dd3d
00000310: 994a 39bd 14f5 c93e ff4e 173e 6530 063e
00000320: 8486 963e 52ad 8d3e 8288 a83e fefd 58be
00000330: ed59 dd3e 98ed b9be 65b0 b83e 3a29 823e
00000340: a728 0d3e 7539 8e3e e3bc ac3d a288 4e3e
00000350: 1dd8 8dbd 7c40 11be 0e3c 46bc 78e7 613e
00000360: 364c 073f f816 1abe 1539 63bd 9f18 ea3d
00000370: 9993 49be 0fc9 283e bb12 853e 2664 573e
00000380: 44e9 8d3e 1066 c33e 46ba 27be 00b5 e13e
00000390: 3e54 4cbe 7bd3 6c3e fb47 523e 1fd4 5bbe
000003a0: 63e6 213e f403 603e 373a 7b3d 03bf 833e
000003b0: 6c04 833e bc79 953e d636 a13e e1f7 b23e
000003c0: b7c1 2c3e 6f2a 8d3e 8d83 6d3d 37ae 24be
000003d0: eb84 513e 5560 8bbe b5e3 d03e e0df c23e
000003e0: 243f df3d 7371 cd3e f027 78bc 60df e7bd
000003f0: 421d 353d 0979 ccbd 4f50 943d 6e01 913e

bias f4 [784]
0.28795028 0.2253628 0.18796748 0.37151542 -0.0674643 0.06255328 0.4096124 -0.07180451
-0.10110194 0.15594094 -0.029834993 0.38951585 -0.12035861 0.13290997 -0.10154251 0.39875
0.2686493 0.061111074 0.38790387 0.01929807 -0.007419376 0.4270671 -0.0013880045 0.40875167
0.09019295 0.31464443 0.26021945 0.034778614 0.24508978 0.33088204 0.27667272 -0.15040237
0.07911316 -0.056950875 0.38495922 0.19556636 -0.029862314 -0.13622792 0.2766719 0.03424646
-0.0418821 0.2991144 -0.26211917 0.17280382 0.24102783 -0.18924132 0.049150854 0.12379478
-0.0068058865 -0.06082051 0.20422858 -0.09042385 0.012241511 0.31071633 0.18156385 0.110983856
0.19883773 -0.0039054744 0.34313926 0.36880583 0.3437434 0.04840784 0.28190285 0.18710488
0.30417687 0.254556 0.1522595 0.1735996 0.22893855 0.106656335 -0.06501084 0.17463079
0.026003845 0.13897982 0.07382084 0.17011389 0.3219666 -0.01314546 -0.055489272 0.035116035
-0.06100343 0.19072053 -0.034895193 0.022397246 0.4630205 0.2039144 0.39978278 0.24121988
-0.008806068 -0.1844761 0.14175116 -0.0074880878 0.086639784 -0.009345165 0.04542701 -0.0947664
-0.10199978 0.2597153 0.08913525 0.12642069 0.119623266 0.04354754 0.002111019 -0.030333258
0.10512132 0.2515002 0.16123633 -0.0046659987 0.058961045 0.25812748 0.33151406 0.16309573
0.29272887 0.3497218 0.13238795 -0.060138732 0.25019342 0.13053867 0.101051316 0.12423208
0.017767323 0.046668798 -0.003096014 0.06352859 0.22735871 0.27753058 0.1660757 0.06361984
0.18629344 -0.078986414 -0.090934396 0.11734969 0.012553109 -0.04990278 0.08405304 -0.060110208
0.22409293 0.299704 -0.039579645 0.22512014 0.14095972 0.27779832 0.005347159 -0.037679803
0.034462392 0.19556668 0.1601333 -0.017432079 0.029263197 -0.08746953 -0.053998217 0.010589589
0.14421572 -0.07367139 0.1543032 0.20411828 0.0072517777 -0.029433077 0.11734352 -0.0026517748
0.22532502 0.27975336 0.06255327 -0.048034973 0.111923605 0.16275129 0.08804745 0.34831342
0.27659324 -0.036313426 -0.13903956 0.3348517 -0.02807822 -0.01899517 0.2876687 0.09677591
0.13966352 0.19401649 0.042889256 0.013120371 0.1483686 0.22739752 0.058055043 0.0503989
0.2024147 0.01564518 0.0011781609 0.2360192 -0.09451571 0.1341322 0.06227472 0.18049069
0.04735222 -0.059268273 0.06268761 0.24974273 0.14006849 0.19353294 -0.08866147 0.19436677
-0.065371744 0.07361788 -0.021039989 -0.055985115 0.12683207 -0.074232 0.011965332 0.008526627
-0.06582407 -0.05179594 -0.09790852 0.12159888 0.09420284 0.14371529 0.18330173 0.18415499
0.010168595 0.27285242 0.0365005 0.17730561 0.28805652 0.22570278 -0.085160464 -0.1747305
0.25159958 0.03537064 0.28944594 -0.096854486 0.14142495 -0.07603937 0.14058957 0.18160152
-0.087218195 0.006174481 -0.08120753 -0.052177675 0.123438835 0.21725209 0.14251518 0.08448359
0.05288852 -0.033414192 0.25768512 0.07347227 -0.0075941137 -0.02389203 0.11662335 0.04108239
0.11622021 -0.122423865 0.12560888 0.14555477 0.48623762 -0.001644423 0.22120363 0.11910567
00000000: 386e 933e 81c5 663e 8c7a 403e 4537 be3e
00000010: b92a 8abd ef1b 803d b7b8 d13e 3e0e 93bd
00000020: 890e cfbd fbae 1f3e 8468 f4bc 9f6e c73e
00000030: 937e f6bd 8d19 083e 85f5 cfbd f628 cc3e
00000040: 678c 893e 9b4f 7a3d 569b c63e fc16 9e3c
00000050: 3d1e f3bb 8aa8 da3e b4ed b5ba e647 d13e
00000060: 15b7 b83d 1319 a13e 7c3b 853e 0574 0e3d
00000070: d1f8 7a3e 5f69 a93e 0ca8 8d3e 1403 1abe
00000080: 1506 a23d 5245 69bd 6019 c53e 8c42 483e
00000090: d0a1 f4bc 557f 0bbe f0a7 8d3e 0446 0c3d
000000a0: 918c 2bbd 8625 993e 7c34 86be 7cf3 303e
000000b0: 00d0 763e 7ac8 41be 6852 493d 1e88 fd3d
000000c0: ea03 dfbb ed1e 79bd 4c21 513e 2430 b9bd
000000d0: 9e90 483c 3616 9f3e e0eb 393e 814b e33d
000000e0: 1e9c 4b3e fdf2 7fbb f3af af3e 1ed4 bc3e
000000f0: 23ff af3e 4d47 463d 9255 903e 6c98 3f3e
00000100: 12bd 9b3e 2a55 823e eae9 1b3e 18c4 313e
00000110: de6e 6a3e a36e da3d 6724 85bd 6ad2 323e
00000120: 0406 d53c ba50 0e3e 612f 973d 5632 2e3e
00000130: ced8 a43e 0e60 57bc b848 63bd d5d5 0f3d
00000140: bcde 79bd 3e4c 433e 43ee 0ebd 6e7a b73c
00000150: 0611 ed3e f0ce 503e 54b0 cc3e 5802 773e
00000160: 5447 10bc 4ee7 3cbe 3727 113e a25e f5bb
00000170: 3370 b13d 771c 19bc ac11 3a3d e314 c2bd
00000180: 43e5 d0bd 67f9 843e 8b8c b63d 6d74 013e
00000190: 0bfd f43d e85e 323d 0659 0a3b 747d f8bc
000001a0: d949 d73d a2c4 803e 231b 253e 3ce5 98bb
000001b0: 2381 713d 4929 843e 36bc a93e 9102 273e
000001c0: 8fe0 953e bc0e b33e b590 073e 0854 76bd
000001d0: 5a19 803e eeab 053e fef3 ce3d 646d fe3d
000001e0: c78c 913c c827 3f3d 7fe6 4abb 471b 823d
000001f0: b9d0 683e 7d18 8e3e c00f 2a3e 1e4b 823d
00000200: b5c3 3e3e a1c3 a1bd d03b babd 0955 f03d
00000210: 8eab 4d3c dc66 4cbd 0024 ac3d 1f36 76bd
00000220: 9e78 653e cd72 993e 441e 22bd e585 663e
00000230: bf57 103e 953b 8e3e 3937 af3b 2356 1abd
00000240: 7028 0d3d a242 483e fcf9 233e b8cd 8ebc
00000250: 5fb9 ef3c 3a23 b3bd 3c2d 5dbd f57f 2d3c
00000260: 49ad 133e 07e1 96bd a801 1e3e 6204 513e
00000270: 52a0 ed3b a31d f1bc cd51 f03d 66c9 2dbb
00000280: 9abb 663e d53b 8f3e ee1b 803d 52c0 44bd
00000290: 3438 e53d 46a8 263e 3952 b43d 2356 b23e
000002a0: a19d 8d3e 63bd 14bd 6360 0ebe af71 ab3e
000002b0: 4c04 e6bc c29b 9bbc 5049 933e 7332 c63d
000002c0: f403 0f3e 42ac 463e a5ac 2f3d d3f6 563c
000002d0: f0ed 173e e5da 683e 20cb 6d3d 146f 4e3d
000002e0: cd45 4f3e 522a 803c 856c 9a3a 04af 713e
000002f0: 7491 c1bd f459 093e c713 7f3d 8dd2 383e
00000300: 67f4 413d 4ac3 72bd 5d62 803d 8fbc 7f3e
00000310: 1d6e 0f3e 802d 463e 2594 b5bd 1508 473e
00000320: 9fe1 85bd f9c4 963d 0e5c acbc a650 65bd
00000330: 44e0 013e f206 98bd 3d0a 443c 44b3 0b3c
00000340: c5ce 86bd fb27 54bd 4384 c8bd d508 f93d
00000350: 6bed c03d 1a2a 133e 73b3 3b3e 2093 3c3e
00000360: 2e9a 263c 50b3 8b3e 8c81 153d 9a8f 353e
00000370: 257c 933e a11e 673e 9c68 aebd 8dec 32be
00000380: a9d1 803e cee0 103d 4232 943e a55b c6bd
00000390: b4d1 103e 87ba 9bbd b6f6 0f3e c0f5 393e
000003a0: 749f b2bd 4d53 ca3b 2250 a6bd 42b8 55bd
000003b0: 80cd fc3d 5577 5e3e 80ef 113e bc05 ad3d
000003c0: a2a1 583d 52dd 08bd 4eef 833e a178 963d
000003d0: 0bd8 f8bb 38b9 c3bc 39d8 ee3d 0246 283d
000003e0: dd04 ee3d 5db9 fabd 9d9f 003e 4f0c 153e
000003f0: 23f4 f83e ae89 d7ba 3483 623e aced f33d

weight f4 [32, 32, 3, 3]
0.04723266 -0.09216737 -0.060735818 -0.1908066 -0.35891384 0.031548936 -0.011537354 0.001099281
0.058670368 -0.1761453 -0.152591 -0.16988486 -0.24557291 -0.45162416 0.030798774 -0.025094178
-0.0389459 -0.022692055 0.109101236 0.055342574 0.21153685 0.17496178 0.22273561 0.05356254
-0.032717325 -0.0011181645 0.021314587 -0.0073805014 0.015752435 0.022646599 -0.3424131 -0.29444465
0.0047115497 0.056976404 -0.043657187 0.05545466 0.008208605 -0.009375126 0.19458848 0.20661013
0.26640213 0.004178237 -0.008777361 0.04783677 0.0036951117 0.09250967 0.18552181 0.15042432
0.115429275 0.2718367 0.056702193 -0.008955013 0.03536867 0.013714854 0.0107621085 0.034032647
0.16843326 0.049552258 0.11667031 0.014639806 0.006814789 0.050442915 0.014809895 0.04433963
-0.022461109 -0.055574637 -0.055668984 -0.27195677 -0.024119433 -0.040080428 -0.021964002 0.04360464
0.07533285 0.122650795 0.036026806 0.16867799 0.024114683 -0.042443674 -0.01384224 0.041801635
-0.0055955686 0.102196395 0.12318432 0.16161937 0.29305568 0.3692199 0.056348857 0.0397995
0.053698223 0.00902338 -0.3356467 -0.34816867 -0.08921133 -0.5300665 -0.30460432 -0.021116
0.03617898 0.046135347 0.056383025 0.046746545 0.20589492 0.17985275 0.08038718 0.2056099
-0.006710332 -0.0011019856 -0.03772499 0.028220695 -0.34630433 0.0055329804 0.16807583 -0.22011316
0.18291001 0.035491224 0.021476526 0.043229584 -0.0073758326 -0.029271383 -0.0063880277 0.19206366
0.070970565 0.23360516 0.040543895 0.036393147 -0.05202412 -0.013964675 0.060926624 -0.063035436
-0.13857494 -0.020218395 -0.2689786 0.050088268 0.036394995 -0.026742794 -0.026340235 0.027137421
0.131402 -0.20745853 0.013297507 -0.030546619 -0.011577439 0.02444135 -0.04295949 0.054347146
-0.07655574 -0.09858657 -0.11998488 0.16051011 0.008002501 0.008128356 -0.056950577 0.05736668
0.028661977 -0.30068663 -0.25513256 -0.10180232 -0.25642407 -0.5934594 -0.011704061 -0.016734619
-0.042533457 -0.04428897 0.085004345 0.032431528 0.026626058 -0.04519843 -0.10414496 -0.04341995
-0.009541303 0.008608971 -0.018125989 0.15989342 0.031684835 0.10632769 0.2288421 0.2361702
0.04697937 -0.031170264 0.03123733 -0.021256432 -0.03550775 0.013305955 0.1285544 -0.25122914
-0.14711884 -0.013660621 -0.008438051 -0.017956574 -0.025248997 0.14035623 0.20640777 0.15294112
0.09982415 0.13102028 0.011815179 -0.026922535 0.037178483 -0.0107883215 0.19808827 0.31011683
0.07764763 0.18651122 0.3168443 0.042986166 -0.03122705 -0.0074926354 0.045849342 0.06266618
0.03693015 -0.1113956 0.23609577 0.12066002 0.0023591705 0.02958649 0.0322774 0.005102519
-0.007214973 -0.06621372 -0.10989533 -0.13814956 -0.29284242 -0.0033830367 -0.038211744 0.05410904
0.055937108 0.016428865 0.1074863 -0.09167729 0.13642317 0.039859075 0.03573801 0.045072798
0.029490251 0.04617275 0.078424886 0.05830738 0.11727518 -0.05863894 0.043508355 0.037190784
0.05150835 -0.036307387 0.053764973 0.0201007 0.07121793 -0.07370713 0.11036918 0.1308941
0.032962922 -0.011596475 0.03135555 -0.019041933 0.040793374 -0.0063742762 -0.056934647 0.031539552
00000000: 0977 413d 3fc2 bcbd 1fc6 78bd ce62 43be
00000010: 8ec3 b7be 7539 013d 2c07 3dbc c015 903a
00000020: 5750 703d 6f5f 34be d140 1cbe 4cf6 2dbe
00000030: 7777 7bbe 483b e7be b64d fc3c 4e92 cdbc
00000040: bc85 1fbd b0e4 b9bc 7870 df3d e5ae 623d
00000050: 1e9d 583e 2e29 333e ce14 643e 6564 5b3d
00000060: 9a02 06bd 608f 92ba ee9b ae3c 22d8 f1bb
00000070: 400b 813c 5c85 b93c c550 afbe 73c1 96be
00000080: 5863 9a3b 1760 693d e1d1 32bd 6d24 633d
00000090: 637d 063c 219a 19bc 3442 473e 9b91 533e
000000a0: dc65 883e 98e9 883b ecce 0fbc 7df0 433d
000000b0: b029 723b b675 bd3d 6ef9 3d3e d508 1a3e
000000c0: 2f66 ec3d 2e2e 8b3e 8f40 683d 0cb8 12bc
000000d0: bdde 103d 44b4 603c 8e53 303c d165 0b3d
000000e0: c579 2c3e 4ff7 4a3d d8f0 ee3d ccdb 6f3c
000000f0: 984e df3b 3b9d 4e3d 34a5 723c 799d 353d
00000100: 5c00 b8bc 3ba2 63bd 2905 64bd eb3d 8bbe
00000110: 1e96 c5bc 602b 24bd daed b3bc c79a 323d
00000120: 1c48 9a3d 5730 fb3d d890 133d ecb9 2c3e
00000130: 288c c53c 6bd9 2dbd 90ca 62bc 3138 2b3d
00000140: 085b b7bb 584c d13d 1048 fc3d 8c7f 253e
00000150: 650b 963e 640a bd3e 0fce 663d cd04 233d
00000160: abf2 5b3d ccd6 133c e2d9 abbe 2a43 b2be
00000170: 6eb4 b6bd 70b2 07bf 19f5 9bbe 76fb acbc
00000180: 6930 143d 6bf8 3c3d e3f1 663d 4e79 3f3d
00000190: 1ed6 523e 522b 383e 09a2 a43d 678b 523e
000001a0: 58e2 dbbb 8070 90ba 8585 1abd 162f e73c
000001b0: cd4e b1be 014e b53b 121c 2c3e 5865 61be
000001c0: c34c 3b3e 3f5f 113d 8aef af3c 8111 313d
000001d0: f8b0 f1bb 8aca efbc a952 d1bb 56ac 443e
000001e0: 0459 913d 3136 6f3e 5b11 263d fb10 153d
000001f0: 3e17 55bd 18cc 64bc 328e 793d b918 81bd
00000200: 97e6 0dbe 0ca1 a5bc 90b7 89be 5b29 4d3d
00000210: eb12 153d b413 dbbc 7ac7 d7bc 4c4f de3c
00000220: 3f8e 063e 0270 54be c9dd 593c e73c fabc
00000230: 4caf 3dbc 3a39 c83c 4af6 2fbd 1d9b 5e3d
00000240: 41c9 9cbd c1e7 c9bd a2ba f5bd c35c 243e
00000250: ec1c 033c cc2c 053c 0245 69bd 53f9 6a3d
00000260: 86cc ea3c 99f3 99be bca0 82be bc7d d0bd
00000270: 044a 83be f5ec 17bf 64c2 3fbc 0a17 89bc
00000280: 9037 2ebd 5a68 35bd c216 ae3d ecd6 043d
00000290: e41e da3c fd21 39bd f449 d5bd 1ed9 31bd
000002a0: 2053 1cbc a40c 0d3c f47c 94bc 1abb 233e
000002b0: f5c7 013d 55c2 d93d 9555 6a3e 9ad6 713e
000002c0: 716d 403d c858 ffbc 6ee5 ff3c f821 aebc
000002d0: 9370 11bd 3801 5a3c c4a3 033e 1ba1 80be
000002e0: 52a6 16be ccd0 5fbc c03f 0abc aa19 93bc
000002f0: fcd6 cebc 8bb9 0f3e 8f5c 533e 999c 1c3e
00000300: 9b70 cc3d 2e2a 063e 7494 413c a68c dcbc
00000310: 7748 183d 80c1 30bc a7d7 4a3e a2c7 9e3e
00000320: b805 9f3d ccfc 3e3e 6b39 a23e 4312 303d
00000330: dfcf ffbc c884 f5bb 85cc 3b3d 2057 803d
00000340: 1244 173d 6023 e4bd 17c3 713e 9a1c f73d
00000350: 509c 1a3b 5e5f f23c 4f35 043d 0833 a73b
00000360: 956b ecbb 0f9b 87bd ce10 e1bd 1477 0dbe
00000370: 71ef 95be f0b5 5dbb eb83 1cbd 71a1 5d3d
00000380: 4f1e 653d d495 863c c721 dc3d 4ec1 bbbd
00000390: 84b2 0b3e 4543 233d 0562 123d 419e 383d
000003a0: 8a95 f13c a31f 3d3d 3a9d a03d b8d3 6e3d
000003b0: f82d f03d 632f 70bd d135 323d 5d55 183d
000003c0: 6bfa 523d 0eb7 14bd a938 5c3d 39aa a43c
000003d0: b5da 913d c4f3 96bd 3d09 e23d 1a09 063e
000003e0: 2104 073d 24ff 3dbc ad6e 003d d4fd 9bbc
000003f0: f416 273d 4edf d0bb 4e34 69bd 9e2f 013d

bias f4 [32]
0.13381113 -0.015743744 0.008604434 -0.034472883 0.09127574 -0.06921209 -0.020810466 0.16720606
-0.011913711 -0.058399476 0.0073891445 -0.06946854 0.08051228 0.13010697 0.039433144 -0.034232356
-0.02014143 0.007154073 0.02456561 0.017267596 -0.03044516 0.23566547 -0.01842186 -0.01891088
0.0019948815 0.031358123 0.0024602502 -0.008953075 -0.04359212 -0.03258638 0.058252912 -0.039086103
00000000: c905 093e 06f9 80bc 9df9 0c3c 7033 0dbd
00000010: c6ee ba3d 11bf 8dbd b67a aabc 1138 2b3e
00000020: ba31 43bc 4a34 6fbd a320 f23b 8645 8ebd
00000030: 9fe3 a43d c33a 053e a684 213d 3a37 0cbd
00000040: a4ff a4bc b76c ea3b d13d c93c c674 8d3c
00000050: 2168 f9bc 4a52 713e 71e9 96bc fdea 9abc
00000060: 8fbc 023b 6071 003d 263c 213b ebaf 12bc
00000070: a78d 32bd 4c79 05bd 9b9a 6e3d c018 20bd

mask f4 [32, 32, 3, 3]
1.0 1.0 1.0 1.0 1.0 0.0 0.0 0.0
0.0 1.0 1.0 1.0 1.0 1.0 0.0 0.0
0.0 0.0 1.0 1.0 1.0 1.0 1.0 0.0
0.0 0.0 0.0 1.0 1.0 1.0 1.0 1.0
0.0 0.0 0.0 0.0 1.0 1.0 1.0 1.0
1.0 0.0 0.0 0.0 0.0 1.0 1.0 1.0
1.0 1.0 0.0 0.0 0.0 0.0 1.0 1.0
1.0 1.0 1.0 0.0 0.0 0.0 0.0 1.0
1.0 1.0 1.0 1.0 0.0 0.0 0.0 0.0
1.0 1.0 1.0 1.0 1.0 0.0 0.0 0.0
0.0 1.0 1.0 1.0 1.0 1.0 0.0 0.0
0.0 0.0 1.0 1.0 1.0 1.0 1.0 0.0
0.0 0.0 0.0 1.0 1.0 1.0 1.0 1.0
0.0 0.0 0.0 0.0 1.0 1.0 1.0 1.0
1.0 0.0 0.0 0.0 0.0 1.0 1.0 1.0
1.0 1.0 0.0 0.0 0.0 0.0 1.0 1.0
1.0 1.0 1.0 0.0 0.0 0.0 0.0 1.0
1.0 1.0 1.0 1.0 0.0 0.0 0.0 0.0
1.0 1.0 1.0 1.0 1.0 0.0 0.0 0.0
0.0 1.0 1.0 1.0 1.0 1.0 0.0 0.0
0.0 0.0 1.0 1.0 1.0 1.0 1.0 0.0
0.0 0.0 0.0 1.0 1.0 1.0 1.0 1.0
0.0 0.0 0.0 0.0 1.0 1.0 1.0 1.0
1.0 0.0 0.0 0.0 0.0 1.0 1.0 1.0
1.0 1.0 0.0 0.0 0.0 0.0 1.0 1.0
1.0 1.0 1.0 0.0 0.0 0.0 0.0 1.0
1.0 1.0 1.0 1.0 0.0 0.0 0.0 0.0
1.0 1.0 1.0 1.0 1.0 0.0 0.0 0.0
0.0 1.0 1.0 1.0 1.0 1.0 0.0 0.0
0.0 0.0 1.0 1.0 1.0 1.0 1.0 0.0
0.0 0.0 0.0 1.0 1.0 1.0 1.0 1.0
0.0 0.0 0.0 0.0 1.0 1.0 1.0 1.0
00000000: 0000 803f 0000 803f 0000 803f 0000 803f
00000010: 0000 803f 0000 0000 0000 0000 0000 0000
00000020: 0000 0000 0000 803f 0000 803f 0000 803f
00000030: 0000 803f 0000 803f 0000 0000 0000 0000
00000040: 0000 0000 0000 0000 0000 803f 0000 803f
00000050: 0000 803f 0000 803f 0000 803f 0000 0000
00000060: 0000 0000 0000 0000 0000 0000 0000 803f
00000070: 0000 803f 0000 803f 0000 803f 0000 803f
00000080: 0000 0000 0000 0000 0000 0000 0000 0000
00000090: 0000 803f 0000 803f 0000 803f 0000 803f
000000a0: 0000 803f 0000 0000 0000 0000 0000 0000
000000b0: 0000 0000 0000 803f 0000 803f 0000 803f
000000c0: 0000 803f 0000 803f 0000 0000 0000 0000
000000d0: 0000 0000 0000 0000 0000 803f 0000 803f
000000e0: 0000 803f 0000 803f 0000 803f 0000 0000
000000f0: 0000 0000 0000 0000 0000 0000 0000 803f
00000100: 0000 803f 0000 803f 0000 803f 0000 803f
00000110: 0000 0000 0000 0000 0000 0000 0000 0000
00000120: 0000 803f 0000 803f 0000 803f 0000 803f
00000130: 0000 803f 0000 0000 0000 0000 0000 0000
00000140: 0000 0000 0000 803f 0000 803f 0000 803f
00000150: 0000 803f 0000 803f 0000 0000 0000 0000
00000160: 0000 0000 0000 0000 0000 803f 0000 803f
00000170: 0000 803f 0000 803f 0000 803f 0000 0000
00000180: 0000 0000 0000 0000 0000 0000 0000 803f
00000190: 0000 803f 0000 803f 0000 803f 0000 803f
000001a0: 0000 0000 0000 0000 0000 0000 0000 0000
000001b0: 0000 803f 0000 803f 0000 803f 0000 803f
000001c0: 0000 803f 0000 0000 0000 0000 0000 0000
000001d0: 0000 0000 0000 803f 0000 803f 0000 803f
000001e0: 0000 803f 0000 803f 0000 0000 0000 0000
000001f0: 0000 0000 0000 0000 0000 803f 0000 803f
00000200: 0000 803f 0000 803f 0000 803f 0000 0000
00000210: 0000 0000 0000 0000 0000 0000 0000 803f
00000220: 0000 803f 0000 803f 0000 803f 0000 803f
00000230: 0000 0000 0000 0000 0000 0000 0000 0000
00000240: 0000 803f 0000 803f 0000 803f 0000 803f
00000250: 0000 803f 0000 0000 0000 0000 0000 0000
00000260: 0000 0000 0000 803f 0000 803f 0000 803f
00000270: 0000 803f 0000 803f 0000 0000 0000 0000
00000280: 0000 0000 0000 0000 0000 803f 0000 803f
00000290: 0000 803f 0000 803f 0000 803f 0000 0000
000002a0: 0000 0000 0000 0000 0000 0000 0000 803f
000002b0: 0000 803f 0000 803f 0000 803f 0000 803f
000002c0: 0000 0000 0000 0000 0000 0000 0000 0000
000002d0: 0000 803f 0000 803f 0000 803f 0000 803f
000002e0: 0000 803f 0000 0000 0000 0000 0000 0000
000002f0: 0000 0000 0000 803f 0000 803f 0000 803f
00000300: 0000 803f 0000 803f 0000 0000 0000 0000
00000310: 0000 0000 0000 0000 0000 803f 0000 803f
00000320: 0000 803f 0000 803f 0000 803f 0000 0000
00000330: 0000 0000 0000 0000 0000 0000 0000 803f
00000340: 0000 803f 0000 803f 0000 803f 0000 803f
00000350: 0000 0000 0000 0000 0000 0000 0000 0000
00000360: 0000 803f 0000 803f 0000 803f 0000 803f
00000370: 0000 803f 0000 0000 0000 0000 0000 0000
00000380: 0000 0000 0000 803f 0000 803f 0000 803f
00000390: 0000 803f 0000 803f 0000 0000 0000 0000
000003a0: 0000 0000 0000 0000 0000 803f 0000 803f
000003b0: 0000 803f 0000 803f 0000 803f 0000 0000
000003c0: 0000 0000 0000 0000 0000 0000 0000 803f
000003d0: 0000 803f 0000 803f 0000 803f 0000 803f
000003e0: 0000 0000 0000 0000 0000 0000 0000 0000
000003f0: 0000 803f 0000 803f 0000 803f 0000 803f

weight f4 [784, 10]
0.095375635 0.30888227 0.22385481 0.29660147 0.1946963 0.14796619 0.07665852 0.34061176
0.17725153 0.33460137 0.038777303 0.10448576 0.04853232 0.105249725 0.10804029 -0.03569585
0.058126688 0.00371978 0.36784387 0.1994886 0.2941581 0.35242125 0.040993057 0.3736513
0.29616395 0.12304787 -0.2579892 0.061510712 -0.681727 -0.16894098 -0.03260351 -0.097338304
0.030068763 0.16986358 -0.17031586 -0.029348196 0.23146865 0.23268981 0.33641657 -0.1521913
0.38759443 -0.044050626 0.15977177 0.20404857 0.019617658 0.17550363 0.20590724 0.38577992
0.3482797 0.17481117 0.33999687 0.29736766 0.070624664 -0.14191818 0.071466856 0.3722733
0.34912133 0.6256704 0.27941763 0.18616839 0.0033417388 0.35069248 0.19892097 0.11674379
0.23416589 0.25222105 0.27330792 -0.09106547 0.2087817 -0.09065693 0.17301969 0.3951394
-0.19761044 -0.007952725 0.23478734 0.13194726 0.008126547 -0.13115558 -0.16718122 -0.07834567
0.3291947 0.2958625 0.10312139 0.020997994 0.42708015 -0.0019176953 0.25484496 -0.016503956
-0.018136865 0.07890144 0.25273982 0.3079416 0.37776038 -0.010156964 0.23896818 0.22583595
0.093414105 0.3741617 0.26151842 0.22282341 0.19068013 0.3667878 0.35558608 0.23976423
0.6413916 0.15150887 -0.13334462 0.27442318 0.5682004 0.15635544 0.082014866 -0.1402199
-0.109929495 0.077521235 -0.017244095 -0.026147667 -0.05237133 -0.027207902 0.38330245 -0.17417757
0.10825683 -0.18334398 0.14161715 0.36025625 -0.16373661 0.014625293 0.06612132 0.35816538
0.3701997 0.013292286 -0.038234185 0.13296352 -0.20960484 0.040764105 0.21887773 0.1856029
0.14521733 0.05875019 -0.073366284 0.02348334 0.25810426 0.2177389 0.49210945 0.36087406
0.71721166 0.34578145 0.0785518 0.36361828 0.014860825 0.9851235 0.29847878 -0.032983426
0.24708731 -0.08654305 0.17484626 0.098617375 0.0006808016 -0.10259937 0.15088518 0.17878833
-0.047464095 0.00046477138 -0.14970216 0.089587525 0.29659298 0.16245572 0.19675113 0.00058948563
-0.1463251 0.19930302 0.2849983 -0.10848426 0.10616178 0.3182162 -0.01714957 0.3442603
0.1827796 -0.17575617 0.11554115 0.23109575 -0.06083908 0.4853651 0.16649045 0.29994178
0.34730625 0.5538089 0.4511759 0.23124593 0.12146119 0.1608364 0.035178952 0.31115136
-0.27331328 0.17145994 0.26491395 0.023093067 0.28840995 0.058887582 0.0011025117 0.24827322
0.2354822 0.13098235 -0.06806478 0.28062826 0.011600526 -0.0986829 0.49369237 0.20346385
0.24332678 0.10039412 0.34266597 0.01021957 0.12654811 -0.15507422 0.11965599 -0.019547084
0.3842313 0.29776818 0.13030061 -0.06548933 0.28409842 0.2280398 0.09946803 0.12854701
0.41146886 0.3995036 0.5532018 -0.13033912 0.32180756 0.30441982 0.34710935 -0.020243833
0.015613626 0.04276658 0.002351667 0.3403257 0.57220846 0.28608757 0.19463974 -0.15452212
0.23031774 0.16744554 0.033195004 0.24338494 -0.06731008 0.0038112812 0.06310533 0.3239154
0.35313126 0.00046479006 0.25523213 0.09416689 0.25079873 0.18399374 0.047140263 -0.18734324
00000000: 4d54 c33d d125 9e3e 323a 653e 26dc 973e
00000010: 785e 473e 7384 173e 24ff 9c3d aa64 ae3e
00000020: 6d81 353e df50 ab3e f3d4 1e3d a1fc d53d
00000030: d3c9 463d 2b8d d73d 3a44 dd3d d035 12bd
00000040: 4016 6e3d 8dc7 733b 0856 bc3e bd46 4c3e
00000050: e49b 963e 8f70 b43e 56e8 273d 394f bf3e
00000060: cda2 973e 8600 fc3d 2917 84be a8f2 7b3d
00000070: a985 2ebf ddfe 2cbe 428b 05bd 4e59 c7bd
00000080: c452 f63c b8f0 2d3e 4867 2ebe a16b f0bc
00000090: 1e06 6d3e 3d46 6e3e cb3e ac3e 09d8 1bbe
000000a0: c772 c63e 6e6e 34bd 369b 233e 1cf2 503e
000000b0: 36b5 a03c 39b7 333e 59d9 523e f284 c53e
000000c0: b851 b23e b301 333e 1214 ae3e 9340 983e
000000d0: aaa3 903d 0053 11be 375d 923d 9b9a be3e
000000e0: 08c0 b23e ef2b 203f d40f 8f3e eda2 3e3e
000000f0: 1301 5b3b f78d b33e f0b1 4b3e 5e17 ef3d
00000100: 2fc9 6f3e 1e23 813e 04ef 8b3e 8880 babd
00000110: dfca 553e 57aa b9bd 132c 313e b64f ca3e
00000120: 645a 4abe 254c 02bc 186c 703e 2f1d 073e
00000130: 3525 053c a64d 06be 8e31 2bbe b273 a0bd
00000140: 358c a83e 4a7b 973e 4f31 d33d fc03 ac3c
00000150: 40aa da3e 2d5b fbba 0a7b 823e 4e33 87bc
00000160: c393 94bc 1497 a13d 1d67 813e 85aa 9d3e
00000170: cf69 c13e 6569 26bc 13b4 743e 8a41 673e
00000180: e54f bf3d 1f92 bf3e bee5 853e d22b 643e
00000190: a741 433e 9ccb bb3e 610f b63e c184 753e
000001a0: 3d32 243f 2425 1b3e 7e8b 08be 3281 8c3e
000001b0: 9575 113f a41b 203e 69f7 a73d ce95 0fbe
000001c0: b722 e1bd 74c3 9e3d 7d43 8dbc a233 d6bc
000001d0: 5283 56bd 1be3 debc 3840 c43e 9b5b 32be
000001e0: c2b5 dd3d 86be 3bbe 1604 113e 8273 b83e
000001f0: 92aa 27be ed9e 6f3c 9d6a 873d 7461 b73e
00000200: d18a bd3e e3c7 593c 739b 1cbd 9727 083e
00000210: a7a2 56be 43f8 263d 7c21 603e b00e 3e3e
00000220: dab3 143e 0aa4 703d 1041 96bd 2260 c03c
00000230: 3e26 843e f2f6 5e3e c5f5 fb3e 7cc4 b83e
00000240: 2f9b 373f 440a b13e c4df a03d 2d2c ba3e
00000250: d17a 733c 0e31 7c3f 36d2 983e a119 07bd
00000260: 7504 7d3e 7c3d b1bd e60a 333e e8f7 c93d
00000270: d277 323a 9e1f d2bd a581 1a3e 4a14 373e
00000280: b669 42bd 8fac f339 864b 19be aa79 b73d
00000290: 09db 973e cb5a 263e 2179 493e b687 1a3a
000002a0: 3fd6 15be 1716 4c3e 4ceb 913e ff2c debd
000002b0: 596b d93d 3ced a23e 417d 8cbc e342 b03e
000002c0: 932a 3b3e 6df9 33be d7a0 ec3d 5da4 6c3e
000002d0: 6632 79bd c681 f83e 797c 2a3e f891 993e
000002e0: 20d2 b13e 6cc6 0d3f 8700 e73e bccb 6c3e
000002f0: a5c0 f83d 4cb2 243e ce17 103d 3b4f 9f3e
00000300: b8ef 8bbe 3293 2f3e cda2 873e ac2d bd3c
00000310: 78aa 933e 1b34 713d 2782 903a 563b 7e3e
00000320: 3f22 713e 3d20 063e 8c65 8bbd 82ae 8f3e
00000330: 2210 3e3c 431a cabd 3fc5 fc3e d458 503e
00000340: a82a 793e 6f9b cd3d ea71 af3e fc6f 273c
00000350: d495 013e c7cb 1ebe 330e f53d 3521 a0bc
00000360: f7b9 c43e 1275 983e 866d 053e 451f 86bd
00000370: 5975 913e 4483 693e e5b5 cb3d d4a1 033e
00000380: 0cac d23e bc8b cc3e a29e 0d3f 9e77 05be
00000390: f6c3 a43e eadc 9b3e 51b8 b13e 65d6 a5bc
000003a0: 4bd0 7f3c 022c 2f3d 6d1e 1a3b 2c3f ae3e
000003b0: 417c 123f 127a 923e a44f 473e 0c3b 1ebe
000003c0: 6ad8 6b3e d876 2b3e 7cf7 073d e739 793e
000003d0: ded9 89bd b0c6 793b 5e3d 813d 3dd8 a53e
000003e0: 9fcd b43e 11af f339 c9ad 823e 92da c03d
000003f0: b168 803e db68 3c3e 2616 413d e8d6 3fbe

bias f4 [784]
0.5328326 0.37809175 -0.20718165 -0.0008607646 0.38218728 0.07444339 0.05859145 0.12954937
0.27533203 0.049168546 0.006930693 0.25977725 0.20516682 0.21428968 -0.008536262 0.3307937
0.21608065 0.3462603 -0.11457615 0.2925137 0.12901272 -0.03485912 -0.030222632 0.23837845
0.13953035 -0.08932648 -0.075672105 -0.058876816 0.040415235 -0.074845545 0.1531612 -0.18068603
0.1121266 0.17250527 0.03341005 0.14495867 -0.12112975 -0.0351572 -0.03167142 -0.009990887
-0.028424397 0.25526944 0.1642993 -0.009689153 -0.029569201 -0.036936212 0.23703897 0.116185345
-0.06758527 0.22718744 0.047432236 0.3217889 -0.17007753 0.029947614 0.00259437 0.01247608
0.27136 0.17538771 -0.13959147 0.27256504 -0.114432044 0.3279097 -0.0533568 -0.08537804
0.01802309 0.056275517 -0.13264698 0.0030045707 0.027839921 0.14545317 0.04583602 -0.087904625
0.20439328 -0.0008956601 -0.03783126 0.0779659 -0.05105477 0.023460291 0.1623364 -0.012069944
0.23019268 0.07852383 0.23860511 -0.051185 0.096112326 -0.099284634 -0.122036636 -0.17113064
0.28994602 -0.07465115 0.22335441 -0.005818459 0.11448827 -0.23018593 -0.20816566 -0.19418782
0.03796132 0.004607089 -0.12920943 -0.0321145 0.0022573937 0.28252333 0.025654156 -0.14201549
-0.087147474 -0.15180157 0.13824633 -0.14511603 0.008708816 0.031965774 0.007368861 -0.045996536
0.14291239 -0.14328952 0.006270588 0.09348795 0.22485922 0.0913536 -0.1509809 -0.010953188
-0.18229818 0.0138041135 -0.030575674 -0.09478221 -0.072365806 0.018838415 -0.042410027 -0.286155
0.013141869 0.028565032 0.11611325 0.21117608 0.20879027 -0.021380361 0.14406964 0.3074203
0.16299528 0.22589186 0.08272964 -0.042265806 0.061567478 -0.020696871 0.2365769 -0.17341354
-0.17293026 -0.12972426 -0.026575409 -0.04546796 -0.052993275 -0.083833575 -0.033777975 -0.20823616
-0.23056556 0.0046376376 -0.2876264 -0.055786837 -0.2158544 -0.15778977 0.072049975 0.056434605
0.055546384 -0.07768034 -0.032538902 0.27934954 0.21437907 0.14239837 -0.014164603 -0.025031783
0.20958623 0.16393976 0.20781402 -0.013126865 -0.13268897 0.122998245 -0.13890351 0.0029952307
0.002471043 0.13145645 0.057065286 -0.22547406 -0.14042816 0.024596833 -0.28077918 -0.0041808705
0.1489235 -0.03991652 -0.101804495 0.057826947 -0.12326017 0.019781902 -0.020343762 0.26422206
-0.0026402827 0.18339269 0.08780942 -0.030497797 0.061893202 -0.095749155 0.028430203 0.22335854
0.1527226 0.009935183 -0.12206267 0.12583585 0.12910797 0.26536185 -0.10118784 -0.016967008
-0.15663233 -0.19820261 -0.059873804 -0.16944996 -0.14569198 -0.02345728 -0.005566933 0.041853372
0.116796024 -0.041093443 0.10309884 0.16926436 -0.086656846 0.101448484 -0.1786907 0.15805362
0.26140514 0.17679466 -0.022804378 -0.11129878 0.048010565 0.02247861 0.098272756 -0.070708
0.13535464 -0.084691845 0.1591735 0.061451755 -0.019996652 0.08244768 -0.17503574 -0.18819359
-0.11661014 0.07521216 -0.06753455 0.0091372775 0.08715582 -0.058713324 0.07487902 0.1421135
0.079889916 0.08040486 0.31413412 0.07536161 0.026593389 0.20449145 0.27624032 0.16532308
00000000: b867 083f 3e95 c13e 6d27 54be efa4 61ba
00000010: 0dae c33e c775 983d 97fd 6f3d 97a8 043e
00000020: 52f8 8c3e f564 493d de1a e33b 8601 853e
00000030: 4017 523e c16e 5b3e aedb 0bbc cb5d a93e
00000040: 3f44 5d3e 0849 b13e e7a6 eabd 5bc4 953e
00000050: e91b 043e 70c8 0ebd 7495 f7bc 7b19 743e
00000060: 0be1 0e3e cdf0 b6bd faf9 9abd d128 71bd
00000070: 728a 253d 9f48 99bd 4ad6 1c3e c205 39be
00000080: a2a2 e53d 39a5 303e fad8 083d 0c70 143e
00000090: e012 f8bd ff00 10bd e4b9 01bd d1b0 23bc
000000a0: 48da e8bc adb2 823e 133e 283e 41bf 1ebc
000000b0: 1c3b f2bc 6d4a 17bd 58ba 723e 95f2 ed3d
000000c0: 256a 8abd d3a3 683e 4e48 423d 84c1 a43e
000000d0: ce28 2ebe b354 f53c 4e06 2a3b 7968 4c3c
000000e0: b3ef 8a3e d698 333e 11f1 0ebe a58d 8b3e
000000f0: 595b eabd c8e3 a73e a98c 5abd afda aebd
00000100: 29a5 933c 2881 663d 9cd4 07be 55e8 443b
00000110: 8c10 e43c adf1 143e 8dbe 3b3d 5707 b4bd
00000120: 794c 513e bbca 6aba f4f4 1abd 96ac 9f3d
00000130: ce1e 51bd cc2f c03c 833b 263e 04c1 45bc
00000140: a1b7 6b3e 1ad1 a03d e654 743e 5da7 51bd
00000150: 8ad6 c43d be55 cbbd 58ee f9bd df3c 2fbe
00000160: ce73 943e b4e2 98bd 05b7 643e c6a8 bebb
00000170: d378 ea3d dcb5 6bbe 6129 55be 2cd9 46be
00000180: 547d 1b3d 10f7 963b 7a4f 04be 7e8a 03bd
00000190: c8f0 133b e6a6 903e aa28 d23c 826c 11be
000001a0: 607a b2bd df71 1bbe 7290 0d3e 4c99 14be
000001b0: 6caf 0e3c 8bee 023d 7d76 f13b dd66 3cbd
000001c0: a057 123e 7dba 12be 8179 cd3b 9c76 bf3d
000001d0: 7f41 663e 9917 bb3d bd9a 1abe 0075 33bc
000001e0: 60ac 3abe a62a 623c d679 fabc 2d1d c2bd
000001f0: 8634 94bd 0553 9a3c 23b6 2dbd e882 92be
00000200: fe50 573c 3701 ea3c c9cc ed3d 8b3e 583e
00000210: 1ecd 553e de25 afbc fe86 133e 3266 9d3e
00000220: 3ce8 263e 3250 673e 286e a93d e91e 2dbd
00000230: 2e2e 7c3d 7c8c a9bc 3741 723e 5293 31be
00000240: a114 31be 70d6 04be acb4 d9bc 9d3c 3abd
00000250: 7a0f 59bd f0b0 abbd c65a 0abd dc3b 55be
00000260: 6119 6cbe 53f7 973b c443 93be bd80 64bd
00000270: f008 5dbe a493 21be f08e 933d f927 673d
00000280: 9b84 633d df16 9fbd 8347 05bd e706 8f3e
00000290: 3086 5b3e e1d0 113e a712 68bc 740f cdbc
000002a0: c69d 563e d3df 273e 33cd 543e 1012 57bc
000002b0: 9edf 07be 81e6 fb3d b93c 0ebe a24b 443b
000002c0: 39f1 213b 859c 063e 4abd 693d ace2 66be
000002d0: 66cc 0fbe 4c7f c93c 4ac2 8fbe afff 88bb
000002e0: 677f 183e 817f 23bd e07e d0bd f3db 6c3d
000002f0: d46f fcbd a80d a23c f6a7 a6bc 1d48 873e
00000300: 9808 2dbb 4bcb 3b3e 6dd5 b33d 84d6 f9bc
00000310: ba83 7d3d 2218 c4bd 75e6 e83c 1ab8 643e
00000320: 5063 1c3e 2ec7 223c fefb f9bd 1ddb 003e
00000330: e134 043e 82dd 873e 923b cfbd 65fe 8abc
00000340: 3a64 20be a0f5 4abe 3c3e 75bd 4a84 2dbe
00000350: 4730 15be 7b29 c0bc d26a b6bb 716e 2b3d
00000360: c132 ef3d 9951 28bd 7c25 d33d a353 2d3e
00000370: 2579 b1bd 39c4 cf3d b2fa 36be cfd8 213e
00000380: e5d6 853e a909 353e 3fd0 babc 9df0 e3bd
00000390: baa6 443d 1025 b83c 3a43 c93d 5bcf 90bd
000003a0: 689a 0a3e eb72 adbd 61fe 223e d6b4 7b3d
000003b0: 05d0 a3bc 54da a83d 923c 33be d2b5 40be
000003c0: 4cd1 eebd d508 9a3d 8e4f 8abd 85b4 153c
000003d0: c07e b23d 627d 70bd 2c5a 993d 3486 113e
000003e0: 539d a33d 4eab a43d 30d6 a03e 3057 9a3d
000003f0: 61da d93c 3566 513e 5f6f 8d3e 744a 293e
